step2/checkpoint.pt (torch, 2395 bytes, 5 tensors)

datadeal.w f4 [29, 1]
00000000: 851b 90bf 8a80 93bf d64b 80be 5d25 debe
00000010: 1545 593f 8327 313f 6dcc a1be c15f 07c0
00000020: 3801 a53e f4b4 a1bf ff30 b33e bbc3 9d3e
00000030: 776f f53d 7dd7 5f3f cfea 12be 6db9 e5bd
00000040: 6171 1cbf ceb2 073d 623c fcbe 665e 7e3e
00000050: a230 e13e f361 d3be 4d50 57bf 083a 14c0
00000060: 5385 d1bd 65d9 4a3f 3b54 94be 8704 583d
00000070: aedc 053f
-1.1258398 -1.1523602 -0.25057858 -0.4338788 0.84871036 0.69200915 -0.31601277 -2.1152194
0.32227492 -1.2633348 0.3499832 0.30813393 0.11984151 0.87438184 -0.14347385 -0.11217008
-0.611105 0.033129506 -0.49264818 0.24840698 0.43982416 -0.41285667 -0.84106904 -2.316042
-0.10230508 0.7923797 -0.28970513 0.052738693 0.52289855

hidden.weight f4 [16, 6]
00000000: b3d9 5fbe b3ac 7f3e ad44 6d3e 78f5 40be
00000010: b0ba b2bc 4836 823e dbf1 d13e 6a15 2a3e
00000020: 3a12 723d 7218 8e3e a367 72be b5f5 a23d
00000030: c7dc a5be 8293 94be b026 5fbe e935 363e
00000040: 8671 213e 7407 7ebe 1097 fc3d 487f 653e
00000050: 6f0d 53bd 7d69 7f3c daba c13d 85ac 813e
00000060: 33b3 c83e 3f15 a1be 5c36 19be 6f48 243e
00000070: b52d ad3e c2e2 b53e c912 b23e baa5 8d3d
00000080: 7ac4 bbbe 7e05 d73c a654 88be 1c20 c8be
00000090: 4db7 b93e edee 9e3e 8281 d0be c37e 9c3d
000000a0: 9dd8 8cbd 1696 89bd d05c 3fbe 83c4 203e
000000b0: 6e9a 77be d742 193e 666b 533e 96a3 953e
000000c0: e84f 1c3e a8e0 cebe b897 87be 9cbc 503e
000000d0: ccfe ae3d 3c0e a3be 1db8 70be 6ca3 c43e
000000e0: f2d7 8c3e 5847 36be 886e d2bd 731d c7be
000000f0: c072 f0bb 2068 9dbe 3d3b a1be 0046 b8bc
00000100: 0012 7b3d de33 2bbe 560f 783e 9665 7ebe
00000110: 31aa bd3e 6e3f 8f3e eb42 b0be c612 d0bd
00000120: 952f 783c 6cf7 663d 6dfe bf3d a703 213e
00000130: ebfb b03c 98c4 4ebe dd67 4c3e 564c c5be
00000140: 7f8d 71be 4c4a c5bd 27dd 45be 78b8 0cbe
00000150: e451 abbe 7cd9 b1bd 5cb8 b23d e22b 88be
00000160: 80a1 abbc 20a1 953e e60a fcbc b0ee b53c
00000170: 9d43 cabc f0fa bd3d 5be3 893e 6bc2 ca3e
-0.2186039 0.24968223 0.23170729 -0.18843639 -0.021817535 0.25432038 0.41004834 0.16609731
0.059099413 0.27753025 -0.23672347 0.07957021 -0.32395002 -0.2901879 -0.21792102 0.17794003
0.15765962 -0.2480753 0.123335004 0.22411835 -0.051526483 0.015589115 0.09459467 0.25326934
0.39199218 -0.31461522 -0.14962143 0.16043256 0.33823934 0.35524565 0.34779957 0.069163755
-0.36673337 0.026247736 -0.26627082 -0.39086998 0.3627266 0.3104166 -0.40723807 0.076413654
-0.06877253 -0.0671808 -0.18687749 0.15699963 -0.24180004 0.14966904 0.20646438 0.2922637
0.15264857 -0.40405774 -0.2648294 0.20384449 0.085446924 -0.31846797 -0.23507734 0.3840593
0.27508503 -0.17800653 -0.102749884 -0.38889655 -0.007337898 -0.30743504 -0.31490508 -0.022494316
0.061296463 -0.16719005 0.242246 -0.2484344 0.37043908 0.2797808 -0.34426054 -0.10159831
0.015148063 0.056388304 0.093747 0.1572405 0.021604499 -0.20192182 0.19961496 -0.38534802
-0.23589133 -0.09633312 -0.19322644 -0.13742244 -0.33460915 -0.0868406 0.0872657 -0.2659598
-0.020951033 0.2922449 -0.030766916 0.022208542 -0.024690444 0.09276378 0.2693127 0.39601454

hidden.bias f4 [16]
00000000: 7551 933e 15ef be3e 39eb 7bbb dcc4 bbbe
00000010: 6937 46be d483 a43e 8037 2dbb ebc5 4fbe
00000020: 482d a0be 5f9d c3be d06a b0be fc91 a9bd
00000030: 80fb 703e d621 4b3e ad96 c9be 0f95 5c3e
0.28773084 0.3729178 -0.0038439764 -0.3667363 -0.19357075 0.32131827 -0.0026430786 -0.20290343
-0.31284547 -0.38206002 -0.3445649 -0.082797974 0.2353344 0.19837126 -0.3937277 0.21541236

output.weight f4 [2, 16]
00000000: 38bd 5abe 8547 8dbd 4efb f2bd 1a46 45bd
00000010: 6a53 49bd 302b 87be e30d 5dbe 5a61 20bd
00000020: 80e1 533b b896 e8bd b8de c03d 746a 66be
00000030: 16a8 0bbd 9076 373e 38d7 d0bd a0be 603e
00000040: 9341 de3d e382 56be 0ba9 333e 9c41 ecbc
00000050: c66c e4bd b753 753e b5db 4ebe 110d dc3c
00000060: c064 56bd 16d0 363e 08ec 8e3d 4105 f63d
00000070: 9d17 d83d 5225 9fbc 505a 57bd 6a8a 4cbe
-0.21361244 -0.06898407 -0.11864339 -0.048162557 -0.049151815 -0.26400137 -0.21587329 -0.03915534
0.0032330453 -0.11356872 0.0941748 -0.22501546 -0.034095846 0.17916322 -0.101973 0.21947718
0.10852351 -0.20948367 0.17544954 -0.028839879 -0.111535594 0.23957716 -0.20200999 0.0268617
-0.052342176 0.17852816 0.06978613 0.12012721 0.10551379 -0.019426975 -0.052576363 -0.19974676

output.bias f4 [2]
00000000: 1373 2a3d d3ad 953e
0.04161365 0.2923418
